task: obb
mode: train
model: "YOLO(\n  (model): OBBModel(\n    (model): Sequential(\n      (0): Conv(\n
  \       (conv): Conv2d(3, 16, kernel_size=(3, 3), stride=(2, 2), padding=(1, 1),
  bias=False)\n        (bn): BatchNorm2d(16, eps=0.001, momentum=0.03, affine=True,
  track_running_stats=True)\n        (act): SiLU(inplace=True)\n      )\n      (1):
  Conv(\n        (conv): Conv2d(16, 32, kernel_size=(3, 3), stride=(2, 2), padding=(1,
  1), bias=False)\n        (bn): BatchNorm2d(32, eps=0.001, momentum=0.03, affine=True,
  track_running_stats=True)\n        (act): SiLU(inplace=True)\n      )\n      (2):
  C2f(\n        (cv1): Conv(\n          (conv): Conv2d(32, 32, kernel_size=(1, 1),
  stride=(1, 1), bias=False)\n          (bn): BatchNorm2d(32, eps=0.001, momentum=0.03,
  affine=True, track_running_stats=True)\n          (act): SiLU(inplace=True)\n        )\n
  \       (cv2): Conv(\n          (conv): Conv2d(48, 32, kernel_size=(1, 1), stride=(1,
  1), bias=False)\n          (bn): BatchNorm2d(32, eps=0.001, momentum=0.03, affine=True,
  track_running_stats=True)\n          (act): SiLU(inplace=True)\n        )\n        (m):
  ModuleList(\n          (0): Bottleneck(\n            (cv1): Conv(\n              (conv):
  Conv2d(16, 16, kernel_size=(3, 3), stride=(1, 1), padding=(1, 1), bias=False)\n
  \             (bn): BatchNorm2d(16, eps=0.001, momentum=0.03, affine=True, track_running_stats=True)\n
  \             (act): SiLU(inplace=True)\n            )\n            (cv2): Conv(\n
  \             (conv): Conv2d(16, 16, kernel_size=(3, 3), stride=(1, 1), padding=(1,
  1), bias=False)\n              (bn): BatchNorm2d(16, eps=0.001, momentum=0.03, affine=True,
  track_running_stats=True)\n              (act): SiLU(inplace=True)\n            )\n
  \         )\n        )\n      )\n      (3): Conv(\n        (conv): Conv2d(32, 64,
  kernel_size=(3, 3), stride=(2, 2), padding=(1, 1), bias=False)\n        (bn): BatchNorm2d(64,
  eps=0.001, momentum=0.03, affine=True, track_running_stats=True)\n        (act):
  SiLU(inplace=True)\n      )\n      (4): C2f(\n        (cv1): Conv(\n          (conv):
  Conv2d(64, 64, kernel_size=(1, 1), stride=(1, 1), bias=False)\n          (bn): BatchNorm2d(64,
  eps=0.001, momentum=0.03, affine=True, track_running_stats=True)\n          (act):
  SiLU(inplace=True)\n        )\n        (cv2): Conv(\n          (conv): Conv2d(128,
  64, kernel_size=(1, 1), stride=(1, 1), bias=False)\n          (bn): BatchNorm2d(64,
  eps=0.001, momentum=0.03, affine=True, track_running_stats=True)\n          (act):
  SiLU(inplace=True)\n        )\n        (m): ModuleList(\n          (0): Bottleneck(\n
  \           (cv1): Conv(\n              (conv): Conv2d(32, 32, kernel_size=(3, 3),
  stride=(1, 1), padding=(1, 1), bias=False)\n              (bn): BatchNorm2d(32,
  eps=0.001, momentum=0.03, affine=True, track_running_stats=True)\n              (act):
  SiLU(inplace=True)\n            )\n            (cv2): Conv(\n              (conv):
  Conv2d(32, 32, kernel_size=(3, 3), stride=(1, 1), padding=(1, 1), bias=False)\n
  \             (bn): BatchNorm2d(32, eps=0.001, momentum=0.03, affine=True, track_running_stats=True)\n
  \             (act): SiLU(inplace=True)\n            )\n          )\n          (1):
  Bottleneck(\n            (cv1): Conv(\n              (conv): Conv2d(32, 32, kernel_size=(3,
  3), stride=(1, 1), padding=(1, 1), bias=False)\n              (bn): BatchNorm2d(32,
  eps=0.001, momentum=0.03, affine=True, track_running_stats=True)\n              (act):
  SiLU(inplace=True)\n            )\n            (cv2): Conv(\n              (conv):
  Conv2d(32, 32, kernel_size=(3, 3), stride=(1, 1), padding=(1, 1), bias=False)\n
  \             (bn): BatchNorm2d(32, eps=0.001, momentum=0.03, affine=True, track_running_stats=True)\n
  \             (act): SiLU(inplace=True)\n            )\n          )\n        )\n
  \     )\n      (5): Conv(\n        (conv): Conv2d(64, 128, kernel_size=(3, 3), stride=(2,
  2), padding=(1, 1), bias=False)\n        (bn): BatchNorm2d(128, eps=0.001, momentum=0.03,
  affine=True, track_running_stats=True)\n        (act): SiLU(inplace=True)\n      )\n
  \     (6): C2f(\n        (cv1): Conv(\n          (conv): Conv2d(128, 128, kernel_size=(1,
  1), stride=(1, 1), bias=False)\n          (bn): BatchNorm2d(128, eps=0.001, momentum=0.03,
  affine=True, track_running_stats=True)\n          (act): SiLU(inplace=True)\n        )\n
  \       (cv2): Conv(\n          (conv): Conv2d(256, 128, kernel_size=(1, 1), stride=(1,
  1), bias=False)\n          (bn): BatchNorm2d(128, eps=0.001, momentum=0.03, affine=True,
  track_running_stats=True)\n          (act): SiLU(inplace=True)\n        )\n        (m):
  ModuleList(\n          (0): Bottleneck(\n            (cv1): Conv(\n              (conv):
  Conv2d(64, 64, kernel_size=(3, 3), stride=(1, 1), padding=(1, 1), bias=False)\n
  \             (bn): BatchNorm2d(64, eps=0.001, momentum=0.03, affine=True, track_running_stats=True)\n
  \             (act): SiLU(inplace=True)\n            )\n            (cv2): Conv(\n
  \             (conv): Conv2d(64, 64, kernel_size=(3, 3), stride=(1, 1), padding=(1,
  1), bias=False)\n              (bn): BatchNorm2d(64, eps=0.001, momentum=0.03, affine=True,
  track_running_stats=True)\n              (act): SiLU(inplace=True)\n            )\n
  \         )\n          (1): Bottleneck(\n            (cv1): Conv(\n              (conv):
  Conv2d(64, 64, kernel_size=(3, 3), stride=(1, 1), padding=(1, 1), bias=False)\n
  \             (bn): BatchNorm2d(64, eps=0.001, momentum=0.03, affine=True, track_running_stats=True)\n
  \             (act): SiLU(inplace=True)\n            )\n            (cv2): Conv(\n
  \             (conv): Conv2d(64, 64, kernel_size=(3, 3), stride=(1, 1), padding=(1,
  1), bias=False)\n              (bn): BatchNorm2d(64, eps=0.001, momentum=0.03, affine=True,
  track_running_stats=True)\n              (act): SiLU(inplace=True)\n            )\n
  \         )\n        )\n      )\n      (7): Conv(\n        (conv): Conv2d(128, 256,
  kernel_size=(3, 3), stride=(2, 2), padding=(1, 1), bias=False)\n        (bn): BatchNorm2d(256,
  eps=0.001, momentum=0.03, affine=True, track_running_stats=True)\n        (act):
  SiLU(inplace=True)\n      )\n      (8): C2f(\n        (cv1): Conv(\n          (conv):
  Conv2d(256, 256, kernel_size=(1, 1), stride=(1, 1), bias=False)\n          (bn):
  BatchNorm2d(256, eps=0.001, momentum=0.03, affine=True, track_running_stats=True)\n
  \         (act): SiLU(inplace=True)\n        )\n        (cv2): Conv(\n          (conv):
  Conv2d(384, 256, kernel_size=(1, 1), stride=(1, 1), bias=False)\n          (bn):
  BatchNorm2d(256, eps=0.001, momentum=0.03, affine=True, track_running_stats=True)\n
  \         (act): SiLU(inplace=True)\n        )\n        (m): ModuleList(\n          (0):
  Bottleneck(\n            (cv1): Conv(\n              (conv): Conv2d(128, 128, kernel_size=(3,
  3), stride=(1, 1), padding=(1, 1), bias=False)\n              (bn): BatchNorm2d(128,
  eps=0.001, momentum=0.03, affine=True, track_running_stats=True)\n              (act):
  SiLU(inplace=True)\n            )\n            (cv2): Conv(\n              (conv):
  Conv2d(128, 128, kernel_size=(3, 3), stride=(1, 1), padding=(1, 1), bias=False)\n
  \             (bn): BatchNorm2d(128, eps=0.001, momentum=0.03, affine=True, track_running_stats=True)\n
  \             (act): SiLU(inplace=True)\n            )\n          )\n        )\n
  \     )\n      (9): SPPF(\n        (cv1): Conv(\n          (conv): Conv2d(256, 128,
  kernel_size=(1, 1), stride=(1, 1), bias=False)\n          (bn): BatchNorm2d(128,
  eps=0.001, momentum=0.03, affine=True, track_running_stats=True)\n          (act):
  SiLU(inplace=True)\n        )\n        (cv2): Conv(\n          (conv): Conv2d(512,
  256, kernel_size=(1, 1), stride=(1, 1), bias=False)\n          (bn): BatchNorm2d(256,
  eps=0.001, momentum=0.03, affine=True, track_running_stats=True)\n          (act):
  SiLU(inplace=True)\n        )\n        (m): MaxPool2d(kernel_size=5, stride=1, padding=2,
  dilation=1, ceil_mode=False)\n      )\n      (10): RCFA(\n        (dir_conv): Conv2d(128,
  512, kernel_size=(3, 3), stride=(1, 1), padding=(1, 1), groups=128, bias=False)\n
  \       (dir_bn): BatchNorm2d(512, eps=0.001, momentum=0.03, affine=True, track_running_stats=True)\n
  \       (dir_act): ReLU(inplace=True)\n        (dir_weight_branch): Sequential(\n
  \         (0): Conv2d(128, 32, kernel_size=(1, 1), stride=(1, 1), bias=False)\n
  \         (1): BatchNorm2d(32, eps=0.001, momentum=0.03, affine=True, track_running_stats=True)\n
  \         (2): ReLU(inplace=True)\n          (3): Conv2d(32, 4, kernel_size=(1,
  1), stride=(1, 1))\n        )\n        (channel_gate): Sequential(\n          (0):
  AdaptiveAvgPool2d(output_size=1)\n          (1): Conv2d(128, 32, kernel_size=(1,
  1), stride=(1, 1))\n          (2): ReLU(inplace=True)\n          (3): Conv2d(32,
  128, kernel_size=(1, 1), stride=(1, 1))\n          (4): Sigmoid()\n        )\n        (proj):
  Conv2d(128, 128, kernel_size=(1, 1), stride=(1, 1), bias=False)\n        (proj_bn):
  BatchNorm2d(128, eps=0.001, momentum=0.03, affine=True, track_running_stats=True)\n
  \     )\n      (11): RCFA(\n        (dir_conv): Conv2d(256, 1024, kernel_size=(3,
  3), stride=(1, 1), padding=(1, 1), groups=256, bias=False)\n        (dir_bn): BatchNorm2d(1024,
  eps=0.001, momentum=0.03, affine=True, track_running_stats=True)\n        (dir_act):
  ReLU(inplace=True)\n        (dir_weight_branch): Sequential(\n          (0): Conv2d(256,
  64, kernel_size=(1, 1), stride=(1, 1), bias=False)\n          (1): BatchNorm2d(64,
  eps=0.001, momentum=0.03, affine=True, track_running_stats=True)\n          (2):
  ReLU(inplace=True)\n          (3): Conv2d(64, 4, kernel_size=(1, 1), stride=(1,
  1))\n        )\n        (channel_gate): Sequential(\n          (0): AdaptiveAvgPool2d(output_size=1)\n
  \         (1): Conv2d(256, 64, kernel_size=(1, 1), stride=(1, 1))\n          (2):
  ReLU(inplace=True)\n          (3): Conv2d(64, 256, kernel_size=(1, 1), stride=(1,
  1))\n          (4): Sigmoid()\n        )\n        (proj): Conv2d(256, 256, kernel_size=(1,
  1), stride=(1, 1), bias=False)\n        (proj_bn): BatchNorm2d(256, eps=0.001, momentum=0.03,
  affine=True, track_running_stats=True)\n      )\n      (12): RCFA(\n        (dir_conv):
  Conv2d(256, 1024, kernel_size=(3, 3), stride=(1, 1), padding=(1, 1), groups=256,
  bias=False)\n        (dir_bn): BatchNorm2d(1024, eps=0.001, momentum=0.03, affine=True,
  track_running_stats=True)\n        (dir_act): ReLU(inplace=True)\n        (dir_weight_branch):
  Sequential(\n          (0): Conv2d(256, 64, kernel_size=(1, 1), stride=(1, 1), bias=False)\n
  \         (1): BatchNorm2d(64, eps=0.001, momentum=0.03, affine=True, track_running_stats=True)\n
  \         (2): ReLU(inplace=True)\n          (3): Conv2d(64, 4, kernel_size=(1,
  1), stride=(1, 1))\n        )\n        (channel_gate): Sequential(\n          (0):
  AdaptiveAvgPool2d(output_size=1)\n          (1): Conv2d(256, 64, kernel_size=(1,
  1), stride=(1, 1))\n          (2): ReLU(inplace=True)\n          (3): Conv2d(64,
  256, kernel_size=(1, 1), stride=(1, 1))\n          (4): Sigmoid()\n        )\n        (proj):
  Conv2d(256, 256, kernel_size=(1, 1), stride=(1, 1), bias=False)\n        (proj_bn):
  BatchNorm2d(256, eps=0.001, momentum=0.03, affine=True, track_running_stats=True)\n
  \     )\n      (13): Upsample(scale_factor=2.0, mode=nearest)\n      (14): Concat()\n
  \     (15): C2f(\n        (cv1): Conv(\n          (conv): Conv2d(384, 128, kernel_size=(1,
  1), stride=(1, 1), bias=False)\n          (bn): BatchNorm2d(128, eps=0.001, momentum=0.03,
  affine=True, track_running_stats=True)\n          (act): SiLU(inplace=True)\n        )\n
  \       (cv2): Conv(\n          (conv): Conv2d(192, 128, kernel_size=(1, 1), stride=(1,
  1), bias=False)\n          (bn): BatchNorm2d(128, eps=0.001, momentum=0.03, affine=True,
  track_running_stats=True)\n          (act): SiLU(inplace=True)\n        )\n        (m):
  ModuleList(\n          (0): Bottleneck(\n            (cv1): Conv(\n              (conv):
  Conv2d(64, 64, kernel_size=(3, 3), stride=(1, 1), padding=(1, 1), bias=False)\n
  \             (bn): BatchNorm2d(64, eps=0.001, momentum=0.03, affine=True, track_running_stats=True)\n
  \             (act): SiLU(inplace=True)\n            )\n            (cv2): Conv(\n
  \             (conv): Conv2d(64, 64, kernel_size=(3, 3), stride=(1, 1), padding=(1,
  1), bias=False)\n              (bn): BatchNorm2d(64, eps=0.001, momentum=0.03, affine=True,
  track_running_stats=True)\n              (act): SiLU(inplace=True)\n            )\n
  \         )\n        )\n      )\n      (16): Upsample(scale_factor=2.0, mode=nearest)\n
  \     (17): Concat()\n      (18): C2f(\n        (cv1): Conv(\n          (conv):
  Conv2d(192, 64, kernel_size=(1, 1), stride=(1, 1), bias=False)\n          (bn):
  BatchNorm2d(64, eps=0.001, momentum=0.03, affine=True, track_running_stats=True)\n
  \         (act): SiLU(inplace=True)\n        )\n        (cv2): Conv(\n          (conv):
  Conv2d(96, 64, kernel_size=(1, 1), stride=(1, 1), bias=False)\n          (bn): BatchNorm2d(64,
  eps=0.001, momentum=0.03, affine=True, track_running_stats=True)\n          (act):
  SiLU(inplace=True)\n        )\n        (m): ModuleList(\n          (0): Bottleneck(\n
  \           (cv1): Conv(\n              (conv): Conv2d(32, 32, kernel_size=(3, 3),
  stride=(1, 1), padding=(1, 1), bias=False)\n              (bn): BatchNorm2d(32,
  eps=0.001, momentum=0.03, affine=True, track_running_stats=True)\n              (act):
  SiLU(inplace=True)\n            )\n            (cv2): Conv(\n              (conv):
  Conv2d(32, 32, kernel_size=(3, 3), stride=(1, 1), padding=(1, 1), bias=False)\n
  \             (bn): BatchNorm2d(32, eps=0.001, momentum=0.03, affine=True, track_running_stats=True)\n
  \             (act): SiLU(inplace=True)\n            )\n          )\n        )\n
  \     )\n      (19): Conv(\n        (conv): Conv2d(64, 64, kernel_size=(3, 3), stride=(2,
  2), padding=(1, 1), bias=False)\n        (bn): BatchNorm2d(64, eps=0.001, momentum=0.03,
  affine=True, track_running_stats=True)\n        (act): SiLU(inplace=True)\n      )\n
  \     (20): Concat()\n      (21): C2f(\n        (cv1): Conv(\n          (conv):
  Conv2d(192, 128, kernel_size=(1, 1), stride=(1, 1), bias=False)\n          (bn):
  BatchNorm2d(128, eps=0.001, momentum=0.03, affine=True, track_running_stats=True)\n
  \         (act): SiLU(inplace=True)\n        )\n        (cv2): Conv(\n          (conv):
  Conv2d(192, 128, kernel_size=(1, 1), stride=(1, 1), bias=False)\n          (bn):
  BatchNorm2d(128, eps=0.001, momentum=0.03, affine=True, track_running_stats=True)\n
  \         (act): SiLU(inplace=True)\n        )\n        (m): ModuleList(\n          (0):
  Bottleneck(\n            (cv1): Conv(\n              (conv): Conv2d(64, 64, kernel_size=(3,
  3), stride=(1, 1), padding=(1, 1), bias=False)\n              (bn): BatchNorm2d(64,
  eps=0.001, momentum=0.03, affine=True, track_running_stats=True)\n              (act):
  SiLU(inplace=True)\n            )\n            (cv2): Conv(\n              (conv):
  Conv2d(64, 64, kernel_size=(3, 3), stride=(1, 1), padding=(1, 1), bias=False)\n
  \             (bn): BatchNorm2d(64, eps=0.001, momentum=0.03, affine=True, track_running_stats=True)\n
  \             (act): SiLU(inplace=True)\n            )\n          )\n        )\n
  \     )\n      (22): Conv(\n        (conv): Conv2d(128, 128, kernel_size=(3, 3),
  stride=(2, 2), padding=(1, 1), bias=False)\n        (bn): BatchNorm2d(128, eps=0.001,
  momentum=0.03, affine=True, track_running_stats=True)\n        (act): SiLU(inplace=True)\n
  \     )\n      (23): Concat()\n      (24): C2f(\n        (cv1): Conv(\n          (conv):
  Conv2d(384, 256, kernel_size=(1, 1), stride=(1, 1), bias=False)\n          (bn):
  BatchNorm2d(256, eps=0.001, momentum=0.03, affine=True, track_running_stats=True)\n
  \         (act): SiLU(inplace=True)\n        )\n        (cv2): Conv(\n          (conv):
  Conv2d(384, 256, kernel_size=(1, 1), stride=(1, 1), bias=False)\n          (bn):
  BatchNorm2d(256, eps=0.001, momentum=0.03, affine=True, track_running_stats=True)\n
  \         (act): SiLU(inplace=True)\n        )\n        (m): ModuleList(\n          (0):
  Bottleneck(\n            (cv1): Conv(\n              (conv): Conv2d(128, 128, kernel_size=(3,
  3), stride=(1, 1), padding=(1, 1), bias=False)\n              (bn): BatchNorm2d(128,
  eps=0.001, momentum=0.03, affine=True, track_running_stats=True)\n              (act):
  SiLU(inplace=True)\n            )\n            (cv2): Conv(\n              (conv):
  Conv2d(128, 128, kernel_size=(3, 3), stride=(1, 1), padding=(1, 1), bias=False)\n
  \             (bn): BatchNorm2d(128, eps=0.001, momentum=0.03, affine=True, track_running_stats=True)\n
  \             (act): SiLU(inplace=True)\n            )\n          )\n        )\n
  \     )\n      (25): OBB_CascadeHead(\n        (cv2): ModuleList(\n          (0):
  Sequential(\n            (0): Conv(\n              (conv): Conv2d(64, 64, kernel_size=(3,
  3), stride=(1, 1), padding=(1, 1), bias=False)\n              (bn): BatchNorm2d(64,
  eps=0.001, momentum=0.03, affine=True, track_running_stats=True)\n              (act):
  SiLU(inplace=True)\n            )\n            (1): Conv(\n              (conv):
  Conv2d(64, 64, kernel_size=(3, 3), stride=(1, 1), padding=(1, 1), bias=False)\n
  \             (bn): BatchNorm2d(64, eps=0.001, momentum=0.03, affine=True, track_running_stats=True)\n
  \             (act): SiLU(inplace=True)\n            )\n            (2): Conv2d(64,
  64, kernel_size=(1, 1), stride=(1, 1))\n          )\n          (1): Sequential(\n
  \           (0): Conv(\n              (conv): Conv2d(128, 64, kernel_size=(3, 3),
  stride=(1, 1), padding=(1, 1), bias=False)\n              (bn): BatchNorm2d(64,
  eps=0.001, momentum=0.03, affine=True, track_running_stats=True)\n              (act):
  SiLU(inplace=True)\n            )\n            (1): Conv(\n              (conv):
  Conv2d(64, 64, kernel_size=(3, 3), stride=(1, 1), padding=(1, 1), bias=False)\n
  \             (bn): BatchNorm2d(64, eps=0.001, momentum=0.03, affine=True, track_running_stats=True)\n
  \             (act): SiLU(inplace=True)\n            )\n            (2): Conv2d(64,
  64, kernel_size=(1, 1), stride=(1, 1))\n          )\n          (2): Sequential(\n
  \           (0): Conv(\n              (conv): Conv2d(256, 64, kernel_size=(3, 3),
  stride=(1, 1), padding=(1, 1), bias=False)\n              (bn): BatchNorm2d(64,
  eps=0.001, momentum=0.03, affine=True, track_running_stats=True)\n              (act):
  SiLU(inplace=True)\n            )\n            (1): Conv(\n              (conv):
  Conv2d(64, 64, kernel_size=(3, 3), stride=(1, 1), padding=(1, 1), bias=False)\n
  \             (bn): BatchNorm2d(64, eps=0.001, momentum=0.03, affine=True, track_running_stats=True)\n
  \             (act): SiLU(inplace=True)\n            )\n            (2): Conv2d(64,
  64, kernel_size=(1, 1), stride=(1, 1))\n          )\n        )\n        (cv3): ModuleList(\n
  \         (0): Sequential(\n            (0): Conv(\n              (conv): Conv2d(64,
  64, kernel_size=(3, 3), stride=(1, 1), padding=(1, 1), bias=False)\n              (bn):
  BatchNorm2d(64, eps=0.001, momentum=0.03, affine=True, track_running_stats=True)\n
  \             (act): SiLU(inplace=True)\n            )\n            (1): Conv(\n
  \             (conv): Conv2d(64, 64, kernel_size=(3, 3), stride=(1, 1), padding=(1,
  1), bias=False)\n              (bn): BatchNorm2d(64, eps=0.001, momentum=0.03, affine=True,
  track_running_stats=True)\n              (act): SiLU(inplace=True)\n            )\n
  \           (2): Conv2d(64, 1, kernel_size=(1, 1), stride=(1, 1))\n          )\n
  \         (1): Sequential(\n            (0): Conv(\n              (conv): Conv2d(128,
  64, kernel_size=(3, 3), stride=(1, 1), padding=(1, 1), bias=False)\n              (bn):
  BatchNorm2d(64, eps=0.001, momentum=0.03, affine=True, track_running_stats=True)\n
  \             (act): SiLU(inplace=True)\n            )\n            (1): Conv(\n
  \             (conv): Conv2d(64, 64, kernel_size=(3, 3), stride=(1, 1), padding=(1,
  1), bias=False)\n              (bn): BatchNorm2d(64, eps=0.001, momentum=0.03, affine=True,
  track_running_stats=True)\n              (act): SiLU(inplace=True)\n            )\n
  \           (2): Conv2d(64, 1, kernel_size=(1, 1), stride=(1, 1))\n          )\n
  \         (2): Sequential(\n            (0): Conv(\n              (conv): Conv2d(256,
  64, kernel_size=(3, 3), stride=(1, 1), padding=(1, 1), bias=False)\n              (bn):
  BatchNorm2d(64, eps=0.001, momentum=0.03, affine=True, track_running_stats=True)\n
  \             (act): SiLU(inplace=True)\n            )\n            (1): Conv(\n
  \             (conv): Conv2d(64, 64, kernel_size=(3, 3), stride=(1, 1), padding=(1,
  1), bias=False)\n              (bn): BatchNorm2d(64, eps=0.001, momentum=0.03, affine=True,
  track_running_stats=True)\n              (act): SiLU(inplace=True)\n            )\n
  \           (2): Conv2d(64, 1, kernel_size=(1, 1), stride=(1, 1))\n          )\n
  \       )\n        (dfl): DFL(\n          (conv): Conv2d(16, 1, kernel_size=(1,
  1), stride=(1, 1), bias=False)\n        )\n        (rabr): RABR_MC(\n          (rabr):
  ModuleList(\n            (0): RABR(\n              (conv_angle): Sequential(\n                (0):
  Conv(\n                  (conv): Conv2d(64, 16, kernel_size=(3, 3), stride=(1, 1),
  padding=(1, 1), bias=False)\n                  (bn): BatchNorm2d(16, eps=0.001,
  momentum=0.03, affine=True, track_running_stats=True)\n                  (act):
  SiLU(inplace=True)\n                )\n                (1): Conv(\n                  (conv):
  Conv2d(16, 64, kernel_size=(3, 3), stride=(1, 1), padding=(1, 1), bias=False)\n
  \                 (bn): BatchNorm2d(64, eps=0.001, momentum=0.03, affine=True, track_running_stats=True)\n
  \                 (act): SiLU(inplace=True)\n                )\n              )\n
  \             (sigmoid): Sigmoid()\n            )\n            (1): RABR(\n              (conv_angle):
  Sequential(\n                (0): Conv(\n                  (conv): Conv2d(128, 32,
  kernel_size=(3, 3), stride=(1, 1), padding=(1, 1), bias=False)\n                  (bn):
  BatchNorm2d(32, eps=0.001, momentum=0.03, affine=True, track_running_stats=True)\n
  \                 (act): SiLU(inplace=True)\n                )\n                (1):
  Conv(\n                  (conv): Conv2d(32, 128, kernel_size=(3, 3), stride=(1,
  1), padding=(1, 1), bias=False)\n                  (bn): BatchNorm2d(128, eps=0.001,
  momentum=0.03, affine=True, track_running_stats=True)\n                  (act):
  SiLU(inplace=True)\n                )\n              )\n              (sigmoid):
  Sigmoid()\n            )\n            (2): RABR(\n              (conv_angle): Sequential(\n
  \               (0): Conv(\n                  (conv): Conv2d(256, 64, kernel_size=(3,
  3), stride=(1, 1), padding=(1, 1), bias=False)\n                  (bn): BatchNorm2d(64,
  eps=0.001, momentum=0.03, affine=True, track_running_stats=True)\n                  (act):
  SiLU(inplace=True)\n                )\n                (1): Conv(\n                  (conv):
  Conv2d(64, 256, kernel_size=(3, 3), stride=(1, 1), padding=(1, 1), bias=False)\n
  \                 (bn): BatchNorm2d(256, eps=0.001, momentum=0.03, affine=True,
  track_running_stats=True)\n                  (act): SiLU(inplace=True)\n                )\n
  \             )\n              (sigmoid): Sigmoid()\n            )\n          )\n
  \         (ca): ModuleList(\n            (0): ChannelAttention(\n              (avg_pool):
  AdaptiveAvgPool2d(output_size=1)\n              (fc): Sequential(\n                (0):
  Linear(in_features=64, out_features=4, bias=False)\n                (1): ReLU(inplace=True)\n
  \               (2): Linear(in_features=4, out_features=64, bias=False)\n                (3):
  Sigmoid()\n              )\n            )\n            (1): ChannelAttention(\n
  \             (avg_pool): AdaptiveAvgPool2d(output_size=1)\n              (fc):
  Sequential(\n                (0): Linear(in_features=128, out_features=8, bias=False)\n
  \               (1): ReLU(inplace=True)\n                (2): Linear(in_features=8,
  out_features=128, bias=False)\n                (3): Sigmoid()\n              )\n
  \           )\n            (2): ChannelAttention(\n              (avg_pool): AdaptiveAvgPool2d(output_size=1)\n
  \             (fc): Sequential(\n                (0): Linear(in_features=256, out_features=16,
  bias=False)\n                (1): ReLU(inplace=True)\n                (2): Linear(in_features=16,
  out_features=256, bias=False)\n                (3): Sigmoid()\n              )\n
  \           )\n          )\n          (up_map): ModuleList(\n            (0): Conv(\n
  \             (conv): Conv2d(128, 64, kernel_size=(1, 1), stride=(1, 1), bias=False)\n
  \             (bn): BatchNorm2d(64, eps=0.001, momentum=0.03, affine=True, track_running_stats=True)\n
  \             (act): SiLU(inplace=True)\n            )\n            (1): Conv(\n
  \             (conv): Conv2d(256, 128, kernel_size=(1, 1), stride=(1, 1), bias=False)\n
  \             (bn): BatchNorm2d(128, eps=0.001, momentum=0.03, affine=True, track_running_stats=True)\n
  \             (act): SiLU(inplace=True)\n            )\n            (2): Identity()\n
  \         )\n          (down_map): ModuleList(\n            (0): Identity()\n            (1):
  Conv(\n              (conv): Conv2d(64, 128, kernel_size=(3, 3), stride=(2, 2),
  padding=(1, 1), bias=False)\n              (bn): BatchNorm2d(128, eps=0.001, momentum=0.03,
  affine=True, track_running_stats=True)\n              (act): SiLU(inplace=True)\n
  \           )\n            (2): Conv(\n              (conv): Conv2d(128, 256, kernel_size=(3,
  3), stride=(2, 2), padding=(1, 1), bias=False)\n              (bn): BatchNorm2d(256,
  eps=0.001, momentum=0.03, affine=True, track_running_stats=True)\n              (act):
  SiLU(inplace=True)\n            )\n          )\n          (merge): ModuleList(\n
  \           (0): Conv(\n              (conv): Conv2d(128, 64, kernel_size=(1, 1),
  stride=(1, 1), bias=False)\n              (bn): BatchNorm2d(64, eps=0.001, momentum=0.03,
  affine=True, track_running_stats=True)\n              (act): SiLU(inplace=True)\n
  \           )\n            (1): Conv(\n              (conv): Conv2d(384, 128, kernel_size=(1,
  1), stride=(1, 1), bias=False)\n              (bn): BatchNorm2d(128, eps=0.001,
  momentum=0.03, affine=True, track_running_stats=True)\n              (act): SiLU(inplace=True)\n
  \           )\n            (2): Conv(\n              (conv): Conv2d(512, 256, kernel_size=(1,
  1), stride=(1, 1), bias=False)\n              (bn): BatchNorm2d(256, eps=0.001,
  momentum=0.03, affine=True, track_running_stats=True)\n              (act): SiLU(inplace=True)\n
  \           )\n          )\n          (upsample): Upsample(scale_factor=2.0, mode=nearest)\n
  \       )\n        (trunks): ModuleList(\n          (0): ModuleList(\n            (0):
  Sequential(\n              (0): Conv(\n                (conv): Conv2d(64, 16, kernel_size=(3,
  3), stride=(1, 1), padding=(1, 1), bias=False)\n                (bn): BatchNorm2d(16,
  eps=0.001, momentum=0.03, affine=True, track_running_stats=True)\n                (act):
  SiLU(inplace=True)\n              )\n              (1): Conv(\n                (conv):
  Conv2d(16, 16, kernel_size=(3, 3), stride=(1, 1), padding=(1, 1), bias=False)\n
  \               (bn): BatchNorm2d(16, eps=0.001, momentum=0.03, affine=True, track_running_stats=True)\n
  \               (act): SiLU(inplace=True)\n              )\n            )\n            (1):
  Sequential(\n              (0): Conv(\n                (conv): Conv2d(128, 16, kernel_size=(3,
  3), stride=(1, 1), padding=(1, 1), bias=False)\n                (bn): BatchNorm2d(16,
  eps=0.001, momentum=0.03, affine=True, track_running_stats=True)\n                (act):
  SiLU(inplace=True)\n              )\n              (1): Conv(\n                (conv):
  Conv2d(16, 16, kernel_size=(3, 3), stride=(1, 1), padding=(1, 1), bias=False)\n
  \               (bn): BatchNorm2d(16, eps=0.001, momentum=0.03, affine=True, track_running_stats=True)\n
  \               (act): SiLU(inplace=True)\n              )\n            )\n            (2):
  Sequential(\n              (0): Conv(\n                (conv): Conv2d(256, 16, kernel_size=(3,
  3), stride=(1, 1), padding=(1, 1), bias=False)\n                (bn): BatchNorm2d(16,
  eps=0.001, momentum=0.03, affine=True, track_running_stats=True)\n                (act):
  SiLU(inplace=True)\n              )\n              (1): Conv(\n                (conv):
  Conv2d(16, 16, kernel_size=(3, 3), stride=(1, 1), padding=(1, 1), bias=False)\n
  \               (bn): BatchNorm2d(16, eps=0.001, momentum=0.03, affine=True, track_running_stats=True)\n
  \               (act): SiLU(inplace=True)\n              )\n            )\n          )\n
  \         (1): ModuleList(\n            (0): Sequential(\n              (0): Conv(\n
  \               (conv): Conv2d(64, 16, kernel_size=(3, 3), stride=(1, 1), padding=(1,
  1), bias=False)\n                (bn): BatchNorm2d(16, eps=0.001, momentum=0.03,
  affine=True, track_running_stats=True)\n                (act): SiLU(inplace=True)\n
  \             )\n              (1): Conv(\n                (conv): Conv2d(16, 16,
  kernel_size=(3, 3), stride=(1, 1), padding=(1, 1), bias=False)\n                (bn):
  BatchNorm2d(16, eps=0.001, momentum=0.03, affine=True, track_running_stats=True)\n
  \               (act): SiLU(inplace=True)\n              )\n            )\n            (1):
  Sequential(\n              (0): Conv(\n                (conv): Conv2d(128, 16, kernel_size=(3,
  3), stride=(1, 1), padding=(1, 1), bias=False)\n                (bn): BatchNorm2d(16,
  eps=0.001, momentum=0.03, affine=True, track_running_stats=True)\n                (act):
  SiLU(inplace=True)\n              )\n              (1): Conv(\n                (conv):
  Conv2d(16, 16, kernel_size=(3, 3), stride=(1, 1), padding=(1, 1), bias=False)\n
  \               (bn): BatchNorm2d(16, eps=0.001, momentum=0.03, affine=True, track_running_stats=True)\n
  \               (act): SiLU(inplace=True)\n              )\n            )\n            (2):
  Sequential(\n              (0): Conv(\n                (conv): Conv2d(256, 16, kernel_size=(3,
  3), stride=(1, 1), padding=(1, 1), bias=False)\n                (bn): BatchNorm2d(16,
  eps=0.001, momentum=0.03, affine=True, track_running_stats=True)\n                (act):
  SiLU(inplace=True)\n              )\n              (1): Conv(\n                (conv):
  Conv2d(16, 16, kernel_size=(3, 3), stride=(1, 1), padding=(1, 1), bias=False)\n
  \               (bn): BatchNorm2d(16, eps=0.001, momentum=0.03, affine=True, track_running_stats=True)\n
  \               (act): SiLU(inplace=True)\n              )\n            )\n          )\n
  \       )\n        (angle_preds): ModuleList(\n          (0): ModuleList(\n            (0):
  Conv2d(16, 1, kernel_size=(1, 1), stride=(1, 1))\n            (1): Conv2d(16, 1,
  kernel_size=(1, 1), stride=(1, 1))\n            (2): Conv2d(16, 1, kernel_size=(1,
  1), stride=(1, 1))\n          )\n          (1): ModuleList(\n            (0): Conv2d(16,
  1, kernel_size=(1, 1), stride=(1, 1))\n            (1): Conv2d(16, 1, kernel_size=(1,
  1), stride=(1, 1))\n            (2): Conv2d(16, 1, kernel_size=(1, 1), stride=(1,
  1))\n          )\n        )\n        (angle_embeds): ModuleList(\n          (0):
  ModuleList(\n            (0): Conv2d(1, 64, kernel_size=(1, 1), stride=(1, 1))\n
  \           (1): Conv2d(1, 128, kernel_size=(1, 1), stride=(1, 1))\n            (2):
  Conv2d(1, 256, kernel_size=(1, 1), stride=(1, 1))\n          )\n          (1): ModuleList(\n
  \           (0): Conv2d(1, 64, kernel_size=(1, 1), stride=(1, 1))\n            (1):
  Conv2d(1, 128, kernel_size=(1, 1), stride=(1, 1))\n            (2): Conv2d(1, 256,
  kernel_size=(1, 1), stride=(1, 1))\n          )\n        )\n        (csa_blocks):
  ModuleList(\n          (0): ModuleList(\n            (0): CSAOrIdentity(\n              (block):
  Identity()\n            )\n            (1): CSAOrIdentity(\n              (block):
  Identity()\n            )\n            (2): CSAOrIdentity(\n              (block):
  Identity()\n            )\n          )\n          (1): ModuleList(\n            (0):
  CSAOrIdentity(\n              (block): CrossStageAttention(\n                (query_conv):
  Conv2d(64, 32, kernel_size=(1, 1), stride=(1, 1))\n                (key_conv): Conv2d(64,
  32, kernel_size=(1, 1), stride=(1, 1))\n                (value_conv): Conv2d(64,
  64, kernel_size=(1, 1), stride=(1, 1))\n              )\n            )\n            (1):
  CSAOrIdentity(\n              (block): CrossStageAttention(\n                (query_conv):
  Conv2d(128, 64, kernel_size=(1, 1), stride=(1, 1))\n                (key_conv):
  Conv2d(128, 64, kernel_size=(1, 1), stride=(1, 1))\n                (value_conv):
  Conv2d(128, 128, kernel_size=(1, 1), stride=(1, 1))\n              )\n            )\n
…
